data.pth (torch, 5610 bytes, 6 tensors)

l1.weight f4 [8, 56]
0.32000542 -0.36701804 0.005503934 -0.047877178 0.5646444 0.5890242 -0.26547194 0.009598749
1.1797469 0.85699487 0.0877834 -0.74337745 -0.03958376 0.54617095 -0.06786015 -0.38143504
-0.19569272 0.47440162 -0.14448184 0.6779859 0.20545317 0.70369756 0.8597487 0.35440582
-0.09692022 -0.02412177 -0.020777807 -0.54790264 -0.045395117 0.34246385 0.6600391 -0.4142241
-0.524929 -0.06351248 -0.38409117 -0.4675645 -0.34904096 -0.5986169 -0.294059 1.011898
-0.054064985 -0.8475048 -0.25753573 -0.015580951 0.09218619 0.33737513 0.44933432 0.15853426
1.049182 -0.40687278 -0.030700497 -0.23431613 0.16833368 -0.29425904 0.53968865 0.62264574
0.60403645 0.09110829 -0.22179882 0.29642227 0.6179898 0.097231165 -0.6425298 0.44830915
0.928462 -0.3586942 0.004966096 0.843277 -0.24272956 0.4443871 0.21129817 0.20232508
0.44612888 0.4275206 -0.6431049 0.86489785 0.43439773 0.8805466 0.9446729 0.12831213
0.27925172 -0.35698456 0.20241383 -0.46433967 -0.109241724 0.49048746 -0.050454974 0.27841312
0.32263485 0.40878317 0.26213577 -0.5943559 0.03398611 1.0760518 -0.47868532 -0.22995408
-0.10781478 0.07973956 0.2532456 1.163649 0.5715516 0.44836843 0.50044733 -0.30968595
0.14879341 -0.4610774 0.30170026 -0.122734375 -0.8501585 0.4022285 0.5314641 -0.050619826
0.6968931 0.011086102 -0.41672137 0.4946484 0.32783228 -0.21654037 1.0072969 0.6411708
-0.89247894 -0.32120645 0.42517197 -0.061952934 -0.44761512 0.47217226 0.31574672 -0.039280336
0.4761044 0.5587386 1.0138366 0.5659933 0.6161744 0.55300856 0.21504228 0.16069396
0.5306879 -0.47406146 -0.23604661 0.20220572 -0.3945131 0.4466751 -0.202339 0.03518894
-0.15343264 0.59780115 0.69096553 -0.12341012 -0.09503 0.88476527 0.1505726 -0.32274887
-0.39239395 0.27126718 0.6334222 1.1175601 0.6453198 0.17411238 0.44264942 -0.10929904
-0.18928425 -0.8649212 0.47636098 -0.25482467 -0.8715318 0.52806145 0.39773762 -0.33357584
0.46501094 0.20302418 -0.2532765 0.051948305 0.5585179 0.42262068 1.288487 -0.14809103
-0.68566674 0.8605982 -0.11778256 -0.62936896 -0.15867992 0.5914035 -0.39431664 -0.27640858
-0.17048803 0.4392394 1.1052046 0.68352485 0.30079883 0.6320014 0.6236183 -0.27631012
-0.13621634 -0.23253047 0.1299289 0.6913494 -0.090519 0.45261648 0.6319582 -0.24292083
-0.14686908 -0.19025245 -0.33860284 0.20930372 -0.20250374 -0.25004783 0.7695624 0.077463925
-0.08333933 -0.17487976 -0.38603672 0.7669093 0.4544867 -0.25595242 0.36945915 -0.43386927
-0.055618152 -0.12165497 -0.026533715 0.06649031 0.38093665 -0.022534385 0.8034083 0.6708647
0.8391931 0.15994558 -0.2969712 0.48071963 0.6415359 0.011448939 -0.6115273 0.15179968
-0.37139377 -0.23046435 -0.45576465 -0.016722418 -0.16231693 0.44228342 0.7608411 -0.103431255
0.577772 0.5390679 -0.61145926 0.7672857 0.6222185 0.7585254 0.86763674 0.12175898
0.28090987 -0.32243407 0.017586002 -0.5696563 -0.141577 0.52480257 -0.1380501 -0.049577378
00000000: c0d7 a33e cae9 bbbe 585a b43b dc1a 44bd
00000010: 898c 103f 4aca 163f f0eb 87be 1244 1d3c
00000020: f201 973f 0464 5b3f c9c7 b33d fc4d 3ebf
00000030: 9522 22bd dcd1 0b3f 43fa 8abd 744b c3be
00000040: ac63 48be c5e4 f23e 0cf3 13be 7c90 2d3f
00000050: 5162 523e 8625 343f 7e18 5c3f ae74 b53e
00000060: 1c7e c6bd 059b c5bc 3836 aabc 5943 0cbf
00000070: 3bf0 39bd 6c57 af3e 53f8 283f 2e15 d4be
00000080: bf61 06bf d512 82bd 99a7 c4be 9d64 efbe
00000090: 7fb5 b2be f53e 19bf e78e 96be e085 813f
000000a0: 3f73 5dbd 13f6 58bf b9db 83be 3f47 7fbc
000000b0: 1dcc bc3d 6fbc ac3e 260f e63e ce56 223e
000000c0: 994b 863f a151 d0be 9c7f fbbc 91f0 6fbe
000000d0: aa5f 2c3e 1fa9 96be 0929 0a3f b665 1f3f
000000e0: 22a2 1a3f fc96 ba3d 3b1f 63be a9c4 973e
000000f0: 9434 1e3f 2221 c73d d57c 24bf c788 e53e
00000100: b0af 6d3f c4a6 b7be a2ba a23b 00e1 573f
00000110: 198e 78be b586 e33e 8c5e 583e 4e2e 4f3e
00000120: 016b e43e fbe3 da3e 86a2 24bf f269 5d3f
00000130: 6169 de3e 816b 613f 15d6 713f 4164 033e
00000140: 15fa 8e3e aec6 b6be 9245 4f3e eebd edbe
00000150: 20ba dfbd 2c21 fb3e e0a9 4ebd 2a8c 8e3e
00000160: 6530 a53e 074c d13e a936 863e b527 18bf
00000170: 0535 0b3d 11bc 893f 3e16 f5be 1579 6bbe
00000180: ffcd dcbd 7f4e a33d 68a9 813e 73f2 943f
00000190: 3551 123f 8c90 e53e 511d 003f 288f 9ebe
000001a0: 4d5d 183e 5612 ecbe 7578 9a3e 295c fbbd
000001b0: fda3 59bf e5f0 cd3e 080e 083f bc56 4fbd
000001c0: 9667 323f 7ba2 353c 815c d5be 8e42 fd3e
000001d0: a2d9 a73e c2bc 5dbe 1bef 803f c523 243f
000001e0: 8079 64bf 2c75 a4be 24b0 d93e 5cc2 7dbd
000001f0: cf2d e5be 90c0 f13e 8ea9 a13e 6be4 20bd
00000200: f5c3 f33e 7e09 0f3f 66c5 813f f0e4 103f
00000210: 9bbd 1d3f f891 0d3f 0b34 5c3e f58c 243e
00000220: 2adb 073f 2fb8 f2be 34b6 71be 040f 4f3e
00000230: 9ffd c9be 99b2 e43e f431 4fbe 4722 103d
00000240: 721d 1dbe 7f09 193f 1ee3 303f 72be fcbd
00000250: 179f c2bd fa7f 623f b42f 1a3e 573f a5be
00000260: dce7 c8be 88e3 8a3e f527 223f 360c 8f3f
00000270: ae33 253f 844a 323e f2a2 e23e 2dd8 dfbd
00000280: bbd3 41be 7a6b 5dbf 96e5 f33e 6178 82be
00000290: b51c 5fbf 092f 073f 44a4 cb3e 74ca aabe
000002a0: ea15 ee3e 92e5 4f3e 75ad 81be bfc7 543d
000002b0: 07fb 0e3f bd61 d83e 24ed a43f 2da5 17be
000002c0: db87 2fbf 2a50 5c3f fc37 f1bd 531e 21bf
000002d0: fd7c 22be 3866 173f dfe3 c9be 6d85 8dbe
000002e0: 6a94 2ebe fde3 e03e 5877 8d3f 7cfb 2e3f
000002f0: 4e02 9a3e d8ca 213f 73a5 1f3f 8578 8dbe
00000300: 4c7c 0bbe 781c 6ebe 150c 053e 46fc 303f
00000310: 0762 b9bd 59bd e73e 03c8 213f 3dc0 78be
00000320: d964 16be 8ad1 42be 5a5d adbe b753 563e
00000330: 245d 4fbe 4506 80be 0b02 453f 68a5 9e3d
00000340: d0ad aabd ae13 33be 9ba6 c5be 2b54 443f
00000350: 7bb2 e83e 320c 83be c029 bd3e 1d24 debe
00000360: dccf 63bd 3e26 f9bd 3c5d d9bc 122c 883d
00000370: 210a c33e 089a b8bc 2bac 4d3f cabd 2b3f
00000380: 5cd5 563f c6c8 233e 9c0c 98be e220 f63e
00000390: b23b 243f 5594 3b3c 0e8d 1cbf 6071 1b3e
000003a0: 5327 bebe d9fe 6bbe fc59 e9be 74fd 88bc
000003b0: 6936 26be f972 e23e 7bc6 423f c4d3 d3bd
000003c0: dee8 133f 5b00 0a3f 9888 1cbf d66c 443f
000003d0: b649 1f3f b82e 423f 711d 5e3f c65c f93d
000003e0: 6bd3 8f3e 1416 a5be 8510 903c ffd4 11bf
000003f0: 90f9 10be 7659 063f 015d 0dbe a611 4bbd

l1.bias f4 [8]
0.99246705 0.6407738 0.81010205 1.1184863 0.60998714 0.9163373 0.53215545 0.73024386
00000000: 5212 7e3f c009 243f d962 4f3f 8f2a 8f3f
00000010: 1e28 1c3f 1595 6a3f 573b 083f 43f1 3a3f

l2.weight f4 [8, 8]
1.4094772 0.20000254 -0.78868914 0.06450427 0.16101836 0.6483512 -1.4368272 1.4835104
-0.20748459 -0.037986986 -0.16394766 0.19860107 0.11661191 -0.30295596 0.08011075 -0.33244532
-0.22487926 0.040855035 -0.3579394 0.14747484 -0.28765163 -0.06707983 0.22248594 0.036068663
0.65350646 -0.37638018 0.88640016 1.5313045 -0.8228641 2.25881 0.74244666 -0.4712222
1.6027503 1.0894785 0.60018116 1.9361012 0.83191913 -0.03850753 -0.62078595 -0.8737417
1.1864859 0.059000522 -0.116796605 -0.06022718 0.036771435 -0.7296265 -0.07392196 1.4046657
-0.24803531 2.1378508 1.4040279 -0.108116984 1.8392249 0.039499648 1.2084756 0.4047351
-0.24186045 -0.08753294 -0.27245313 -0.1743894 -0.25349066 -0.07969612 -0.08358908 0.107616544
00000000: c069 b43f 77cd 4c3e 88e7 49bf d11a 843d
00000010: ffe1 243e 58fa 253f f4e9 b7bf abe3 bd3f
00000020: d776 54be 3e98 1bbd e5e1 27be 145e 4b3e
00000030: 3ad2 ee3d 0b1d 9bbe 1b11 a43d 4636 aabe
00000040: c046 66be 9c57 273d d543 b7be a503 173e
00000050: 1347 93be 2661 89bd 5bd3 633e bcbc 133d
00000060: 334c 273f e7b4 c0be 1feb 623f c901 c43f
00000070: 39a7 52bf 5890 1040 fc10 3e3f 0944 f1be
00000080: ec26 cd3f 0874 8b3f 79a5 193f 2ad2 f73f
00000090: a7f8 543f 12ba 1dbd d4eb 1ebf 89ad 5fbf
000000a0: c5de 973f 88aa 713d 0f33 efbd c7b0 76bd
000000b0: a59d 163d cdc8 3abf 6664 97bd 16cc b33f
000000c0: f8fc 7dbe 8cd2 0840 30b7 b33f 706c ddbd
000000d0: b96b eb3f 62ca 213d 54af 9a3f 7039 cf3e
000000e0: 44aa 77be 7844 b3bd fa7e 8bbe 2393 32be
000000f0: 87c9 81be b837 a3bd c030 abbd 1066 dc3d

l2.bias f4 [8]
0.5751143 -0.19845271 -0.21498299 1.0752225 -0.15147614 -0.095438965 -0.57748866 -0.3381653
00000000: b13a 133f 3037 4bbe 8024 5cbe e4a0 893f
00000010: 901c 1bbe 8175 c3bd 4cd6 13bf 0124 adbe

l3.weight f4 [10, 8]
0.50453967 0.17085658 0.019075567 -1.9478576 -1.8057846 0.6334119 0.3125888 -0.30816278
0.61088413 -0.1924401 -0.37601948 -0.5715447 -0.3212893 0.37416473 -0.7406702 0.22523901
-1.6009425 -0.028840879 -0.22171111 0.63774496 0.51371163 -1.8287385 -0.6282727 -0.2340052
-0.1286208 0.2553932 -0.3777987 -0.48486564 0.5363392 -0.41409662 0.14745075 -0.06375152
0.8577801 0.12650679 0.040363796 0.40959442 -2.4287503 -0.19383876 -2.037349 -0.2364367
0.10590906 -0.24252886 -0.3372351 0.21898565 0.69220966 -1.0995077 -1.7003725 -0.0773823
-1.2327174 0.31597036 -0.32464904 -0.8072199 -0.5456529 0.3459253 0.7074514 -0.08134359
-0.4331929 -0.25139114 -0.14440998 0.76048285 -1.3624605 -0.14789881 -0.2235991 -0.25870687
-0.49187124 0.30484292 -0.3164095 0.24606311 -0.81750965 -2.2159464 0.6595395 -0.1237624
-1.426297 -0.15847178 -0.01609529 -0.21520258 0.6478087 -1.9588585 0.5055929 0.23986956
00000000: 8329 013f 07f5 2e3e 5d44 9c3c 6653 f9bf
00000010: f323 e7bf 4827 223f a40b a03e 83c7 9dbe
00000020: e762 1c3f 040f 45be a085 c0be c150 12bf
00000030: 0880 a4be 8592 bf3e 909c 3dbf 0ea5 663e
00000040: afeb ccbf b543 ecbc 3d08 63be 4143 233f
00000050: 9b82 033f 1a14 eabf 7bd6 20bf 0f9f 6fbe
00000060: 2cb5 03be e6c2 823e d56e c1be 4f40 f8be
00000070: 874d 093f 7904 d4be 54fd 163e 2890 82bd
00000080: 7a97 5b3f ff8a 013e 8254 253d 5cb6 d13e
00000090: a570 1bc0 ab7d 46be ed63 02c0 761c 72be
000000a0: d9e6 d83d 7c59 78be 14aa acbe c63d 603e
000000b0: a734 313f abbc 8cbf cea5 d9bf 9c7a 9ebd
000000c0: afc9 9dbf dec6 a13e 6638 a6be f7a5 4ebf
000000d0: e9af 0bbf 1f1d b13e 891b 353f 7897 a6bd
000000e0: 76cb ddbe 57b6 80be 36e0 13be 01af 423f
000000f0: 1b65 aebf c972 17be 2af7 64be 3a75 84be
00000100: 8cd6 fbbe 5f14 9c3e 6d00 a2be f8f7 7b3e
00000110: 5048 51bf 11d2 0dc0 95d7 283f 2477 fdbd
00000120: e690 b6bf 6d46 22be 45da 83bc 115e 5cbe
00000130: cad6 253f e0bb fabf 896e 013f 5ea0 753e

l3.bias f4 [10]
-0.008448274 -0.52867043 -0.14760847 -0.1967356 0.48619577 -0.15380906 0.03825117 0.76985425
-0.0047586355 -0.7088845
00000000: a16a 0abc f256 07bf ad26 17be 0f75 49be
00000010: a7ee f83e 1f80 1dbe 42ad 1c3d 2b15 453f
00000020: 54ee 9bbb 7479 35bf
